Running Experiment: se_resnet18_adam
Using device: cuda
Running Experiment: se_resnet18_adam
Using device: cuda
Running Experiment: se_resnet18_adam
Using device: cuda
Running Experiment: se_resnet18_adam
Using device: cuda
Running Experiment: se_resnet18_adam
Using device: cuda
Running Experiment: se_resnet18_adam
Using device: cuda
Running Experiment: se_resnet18_adam
Using device: cuda
Using 7 GPUs!
Model Architecture:
DataParallel(
  (module): ResNet(
    (conv1): Conv2d(3, 64, kernel_size=(3, 3), stride=(1, 1), padding=(1, 1), bias=False)
    (bn1): BatchNorm2d(64, eps=1e-05, momentum=0.1, affine=True, track_running_stats=True)
    (layer1): Sequential(
      (0): SEBasicBlock(
        (conv1): Conv2d(64, 64, kernel_size=(3, 3), stride=(1, 1), padding=(1, 1), bias=False)
        (bn1): BatchNorm2d(64, eps=1e-05, momentum=0.1, affine=True, track_running_stats=True)
        (conv2): Conv2d(64, 64, kernel_size=(3, 3), stride=(1, 1), padding=(1, 1), bias=False)
        (bn2): BatchNorm2d(64, eps=1e-05, momentum=0.1, affine=True, track_running_stats=True)
        (shortcut): Sequential()
        (se): SEBlock(
          (avg_pool): AdaptiveAvgPool2d(output_size=1)
          (fc): Sequential(
            (0): Linear(in_features=64, out_features=4, bias=False)
            (1): ReLU(inplace=True)
            (2): Linear(in_features=4, out_features=64, bias=False)
            (3): Sigmoid()
          )
        )
      )
      (1): SEBasicBlock(
        (conv1): Conv2d(64, 64, kernel_size=(3, 3), stride=(1, 1), padding=(1, 1), bias=False)
        (bn1): BatchNorm2d(64, eps=1e-05, momentum=0.1, affine=True, track_running_stats=True)
        (conv2): Conv2d(64, 64, kernel_size=(3, 3), stride=(1, 1), padding=(1, 1), bias=False)
        (bn2): BatchNorm2d(64, eps=1e-05, momentum=0.1, affine=True, track_running_stats=True)
        (shortcut): Sequential()
        (se): SEBlock(
          (avg_pool): AdaptiveAvgPool2d(output_size=1)
          (fc): Sequential(
            (0): Linear(in_features=64, out_features=4, bias=False)
            (1): ReLU(inplace=True)
            (2): Linear(in_features=4, out_features=64, bias=False)
            (3): Sigmoid()
          )
        )
      )
    )
    (layer2): Sequential(
      (0): SEBasicBlock(
        (conv1): Conv2d(64, 128, kernel_size=(3, 3), stride=(2, 2), padding=(1, 1), bias=False)
        (bn1): BatchNorm2d(128, eps=1e-05, momentum=0.1, affine=True, track_running_stats=True)
        (conv2): Conv2d(128, 128, kernel_size=(3, 3), stride=(1, 1), padding=(1, 1), bias=False)
        (bn2): BatchNorm2d(128, eps=1e-05, momentum=0.1, affine=True, track_running_stats=True)
        (shortcut): Sequential(
          (0): Conv2d(64, 128, kernel_size=(1, 1), stride=(2, 2), bias=False)
          (1): BatchNorm2d(128, eps=1e-05, momentum=0.1, affine=True, track_running_stats=True)
        )
        (se): SEBlock(
          (avg_pool): AdaptiveAvgPool2d(output_size=1)
          (fc): Sequential(
            (0): Linear(in_features=128, out_features=8, bias=False)
            (1): ReLU(inplace=True)
            (2): Linear(in_features=8, out_features=128, bias=False)
            (3): Sigmoid()
          )
        )
      )
      (1): SEBasicBlock(
        (conv1): Conv2d(128, 128, kernel_size=(3, 3), stride=(1, 1), padding=(1, 1), bias=False)
        (bn1): BatchNorm2d(128, eps=1e-05, momentum=0.1, affine=True, track_running_stats=True)
        (conv2): Conv2d(128, 128, kernel_size=(3, 3), stride=(1, 1), padding=(1, 1), bias=False)
        (bn2): BatchNorm2d(128, eps=1e-05, momentum=0.1, affine=True, track_running_stats=True)
        (shortcut): Sequential()
        (se): SEBlock(
          (avg_pool): AdaptiveAvgPool2d(output_size=1)
          (fc): Sequential(
            (0): Linear(in_features=128, out_features=8, bias=False)
            (1): ReLU(inplace=True)
            (2): Linear(in_features=8, out_features=128, bias=False)
            (3): Sigmoid()
          )
        )
      )
    )
    (layer3): Sequential(
      (0): SEBasicBlock(
        (conv1): Conv2d(128, 256, kernel_size=(3, 3), stride=(2, 2), padding=(1, 1), bias=False)
        (bn1): BatchNorm2d(256, eps=1e-05, momentum=0.1, affine=True, track_running_stats=True)
        (conv2): Conv2d(256, 256, kernel_size=(3, 3), stride=(1, 1), padding=(1, 1), bias=False)
        (bn2): BatchNorm2d(256, eps=1e-05, momentum=0.1, affine=True, track_running_stats=True)
        (shortcut): Sequential(
          (0): Conv2d(128, 256, kernel_size=(1, 1), stride=(2, 2), bias=False)
          (1): BatchNorm2d(256, eps=1e-05, momentum=0.1, affine=True, track_running_stats=True)
        )
        (se): SEBlock(
          (avg_pool): AdaptiveAvgPool2d(output_size=1)
          (fc): Sequential(
            (0): Linear(in_features=256, out_features=16, bias=False)
            (1): ReLU(inplace=True)
            (2): Linear(in_features=16, out_features=256, bias=False)
            (3): Sigmoid()
          )
        )
      )
      (1): SEBasicBlock(
        (conv1): Conv2d(256, 256, kernel_size=(3, 3), stride=(1, 1), padding=(1, 1), bias=False)
        (bn1): BatchNorm2d(256, eps=1e-05, momentum=0.1, affine=True, track_running_stats=True)
        (conv2): Conv2d(256, 256, kernel_size=(3, 3), stride=(1, 1), padding=(1, 1), bias=False)
        (bn2): BatchNorm2d(256, eps=1e-05, momentum=0.1, affine=True, track_running_stats=True)
        (shortcut): Sequential()
        (se): SEBlock(
          (avg_pool): AdaptiveAvgPool2d(output_size=1)
          (fc): Sequential(
            (0): Linear(in_features=256, out_features=16, bias=False)
            (1): ReLU(inplace=True)
            (2): Linear(in_features=16, out_features=256, bias=False)
            (3): Sigmoid()
          )
        )
      )
    )
    (layer4): Sequential(
      (0): SEBasicBlock(
        (conv1): Conv2d(256, 512, kernel_size=(3, 3), stride=(2, 2), padding=(1, 1), bias=False)
        (bn1): BatchNorm2d(512, eps=1e-05, momentum=0.1, affine=True, track_running_stats=True)
        (conv2): Conv2d(512, 512, kernel_size=(3, 3), stride=(1, 1), padding=(1, 1), bias=False)
        (bn2): BatchNorm2d(512, eps=1e-05, momentum=0.1, affine=True, track_running_stats=True)
        (shortcut): Sequential(
          (0): Conv2d(256, 512, kernel_size=(1, 1), stride=(2, 2), bias=False)
          (1): BatchNorm2d(512, eps=1e-05, momentum=0.1, affine=True, track_running_stats=True)
        )
        (se): SEBlock(
          (avg_pool): AdaptiveAvgPool2d(output_size=1)
          (fc): Sequential(
            (0): Linear(in_features=512, out_features=32, bias=False)
            (1): ReLU(inplace=True)
            (2): Linear(in_features=32, out_features=512, bias=False)
            (3): Sigmoid()
          )
        )
      )
      (1): SEBasicBlock(
        (conv1): Conv2d(512, 512, kernel_size=(3, 3), stride=(1, 1), padding=(1, 1), bias=False)
        (bn1): BatchNorm2d(512, eps=1e-05, momentum=0.1, affine=True, track_running_stats=True)
        (conv2): Conv2d(512, 512, kernel_size=(3, 3), stride=(1, 1), padding=(1, 1), bias=False)
        (bn2): BatchNorm2d(512, eps=1e-05, momentum=0.1, affine=True, track_running_stats=True)
        (shortcut): Sequential()
        (se): SEBlock(
          (avg_pool): AdaptiveAvgPool2d(output_size=1)
          (fc): Sequential(
            (0): Linear(in_features=512, out_features=32, bias=False)
            (1): ReLU(inplace=True)
            (2): Linear(in_features=32, out_features=512, bias=False)
            (3): Sigmoid()
          )
        )
      )
    )
    (linear): Linear(in_features=512, out_features=10, bias=True)
  )
)

Optimizer:
Adam (
Parameter Group 0
    amsgrad: False
    betas: (0.9, 0.999)
    capturable: False
    decoupled_weight_decay: False
    differentiable: False
    eps: 1e-08
    foreach: None
    fused: None
    lr: 0.001
    maximize: False
    weight_decay: 0
)
Using 7 GPUs!
Model Architecture:
DataParallel(
  (module): ResNet(
    (conv1): Conv2d(3, 64, kernel_size=(3, 3), stride=(1, 1), padding=(1, 1), bias=False)
    (bn1): BatchNorm2d(64, eps=1e-05, momentum=0.1, affine=True, track_running_stats=True)
    (layer1): Sequential(
      (0): SEBasicBlock(
        (conv1): Conv2d(64, 64, kernel_size=(3, 3), stride=(1, 1), padding=(1, 1), bias=False)
        (bn1): BatchNorm2d(64, eps=1e-05, momentum=0.1, affine=True, track_running_stats=True)
        (conv2): Conv2d(64, 64, kernel_size=(3, 3), stride=(1, 1), padding=(1, 1), bias=False)
        (bn2): BatchNorm2d(64, eps=1e-05, momentum=0.1, affine=True, track_running_stats=True)
        (shortcut): Sequential()
        (se): SEBlock(
          (avg_pool): AdaptiveAvgPool2d(output_size=1)
          (fc): Sequential(
            (0): Linear(in_features=64, out_features=4, bias=False)
            (1): ReLU(inplace=True)
            (2): Linear(in_features=4, out_features=64, bias=False)
            (3): Sigmoid()
          )
        )
      )
      (1): SEBasicBlock(
        (conv1): Conv2d(64, 64, kernel_size=(3, 3), stride=(1, 1), padding=(1, 1), bias=False)
        (bn1): BatchNorm2d(64, eps=1e-05, momentum=0.1, affine=True, track_running_stats=True)
        (conv2): Conv2d(64, 64, kernel_size=(3, 3), stride=(1, 1), padding=(1, 1), bias=False)
        (bn2): BatchNorm2d(64, eps=1e-05, momentum=0.1, affine=True, track_running_stats=True)
        (shortcut): Sequential()
        (se): SEBlock(
          (avg_pool): AdaptiveAvgPool2d(output_size=1)
          (fc): Sequential(
            (0): Linear(in_features=64, out_features=4, bias=False)
            (1): ReLU(inplace=True)
            (2): Linear(in_features=4, out_features=64, bias=False)
            (3): Sigmoid()
          )
        )
      )
    )
    (layer2): Sequential(
      (0): SEBasicBlock(
        (conv1): Conv2d(64, 128, kernel_size=(3, 3), stride=(2, 2), padding=(1, 1), bias=False)
        (bn1): BatchNorm2d(128, eps=1e-05, momentum=0.1, affine=True, track_running_stats=True)
        (conv2): Conv2d(128, 128, kernel_size=(3, 3), stride=(1, 1), padding=(1, 1), bias=False)
        (bn2): BatchNorm2d(128, eps=1e-05, momentum=0.1, affine=True, track_running_stats=True)
        (shortcut): Sequential(
          (0): Conv2d(64, 128, kernel_size=(1, 1), stride=(2, 2), bias=False)
          (1): BatchNorm2d(128, eps=1e-05, momentum=0.1, affine=True, track_running_stats=True)
        )
        (se): SEBlock(
          (avg_pool): AdaptiveAvgPool2d(output_size=1)
          (fc): Sequential(
            (0): Linear(in_features=128, out_features=8, bias=False)
            (1): ReLU(inplace=True)
            (2): Linear(in_features=8, out_features=128, bias=False)
            (3): Sigmoid()
          )
        )
      )
      (1): SEBasicBlock(
        (conv1): Conv2d(128, 128, kernel_size=(3, 3), stride=(1, 1), padding=(1, 1), bias=False)
        (bn1): BatchNorm2d(128, eps=1e-05, momentum=0.1, affine=True, track_running_stats=True)
        (conv2): Conv2d(128, 128, kernel_size=(3, 3), stride=(1, 1), padding=(1, 1), bias=False)
        (bn2): BatchNorm2d(128, eps=1e-05, momentum=0.1, affine=True, track_running_stats=True)
        (shortcut): Sequential()
        (se): SEBlock(
          (avg_pool): AdaptiveAvgPool2d(output_size=1)
          (fc): Sequential(
            (0): Linear(in_features=128, out_features=8, bias=False)
            (1): ReLU(inplace=True)
            (2): Linear(in_features=8, out_features=128, bias=False)
            (3): Sigmoid()
          )
        )
      )
    )
    (layer3): Sequential(
      (0): SEBasicBlock(
        (conv1): Conv2d(128, 256, kernel_size=(3, 3), stride=(2, 2), padding=(1, 1), bias=False)
        (bn1): BatchNorm2d(256, eps=1e-05, momentum=0.1, affine=True, track_running_stats=True)
        (conv2): Conv2d(256, 256, kernel_size=(3, 3), stride=(1, 1), padding=(1, 1), bias=False)
        (bn2): BatchNorm2d(256, eps=1e-05, momentum=0.1, affine=True, track_running_stats=True)
        (shortcut): Sequential(
          (0): Conv2d(128, 256, kernel_size=(1, 1), stride=(2, 2), bias=False)
          (1): BatchNorm2d(256, eps=1e-05, momentum=0.1, affine=True, track_running_stats=True)
        )
        (se): SEBlock(
          (avg_pool): AdaptiveAvgPool2d(output_size=1)
          (fc): Sequential(
            (0): Linear(in_features=256, out_features=16, bias=False)
            (1): ReLU(inplace=True)
            (2): Linear(in_features=16, out_features=256, bias=False)
            (3): Sigmoid()
          )
        )
      )
      (1): SEBasicBlock(
        (conv1): Conv2d(256, 256, kernel_size=(3, 3), stride=(1, 1), padding=(1, 1), bias=False)
        (bn1): BatchNorm2d(256, eps=1e-05, momentum=0.1, affine=True, track_running_stats=True)
        (conv2): Conv2d(256, 256, kernel_size=(3, 3), stride=(1, 1), padding=(1, 1), bias=False)
        (bn2): BatchNorm2d(256, eps=1e-05, momentum=0.1, affine=True, track_running_stats=True)
        (shortcut): Sequential()
        (se): SEBlock(
          (avg_pool): AdaptiveAvgPool2d(output_size=1)
          (fc): Sequential(
            (0): Linear(in_features=256, out_features=16, bias=False)
            (1): ReLU(inplace=True)
            (2): Linear(in_features=16, out_features=256, bias=False)
            (3): Sigmoid()
          )
        )
      )
    )
    (layer4): Sequential(
      (0): SEBasicBlock(
        (conv1): Conv2d(256, 512, kernel_size=(3, 3), stride=(2, 2), padding=(1, 1), bias=False)
        (bn1): BatchNorm2d(512, eps=1e-05, momentum=0.1, affine=True, track_running_stats=True)
        (conv2): Conv2d(512, 512, kernel_size=(3, 3), stride=(1, 1), padding=(1, 1), bias=False)
        (bn2): BatchNorm2d(512, eps=1e-05, momentum=0.1, affine=True, track_running_stats=True)
        (shortcut): Sequential(
          (0): Conv2d(256, 512, kernel_size=(1, 1), stride=(2, 2), bias=False)
          (1): BatchNorm2d(512, eps=1e-05, momentum=0.1, affine=True, track_running_stats=True)
        )
        (se): SEBlock(
          (avg_pool): AdaptiveAvgPool2d(output_size=1)
          (fc): Sequential(
            (0): Linear(in_features=512, out_features=32, bias=False)
            (1): ReLU(inplace=True)
            (2): Linear(in_features=32, out_features=512, bias=False)
            (3): Sigmoid()
          )
        )
      )
      (1): SEBasicBlock(
        (conv1): Conv2d(512, 512, kernel_size=(3, 3), stride=(1, 1), padding=(1, 1), bias=False)
        (bn1): BatchNorm2d(512, eps=1e-05, momentum=0.1, affine=True, track_running_stats=True)
        (conv2): Conv2d(512, 512, kernel_size=(3, 3), stride=(1, 1), padding=(1, 1), bias=False)
        (bn2): BatchNorm2d(512, eps=1e-05, momentum=0.1, affine=True, track_running_stats=True)
        (shortcut): Sequential()
        (se): SEBlock(
          (avg_pool): AdaptiveAvgPool2d(output_size=1)
          (fc): Sequential(
            (0): Linear(in_features=512, out_features=32, bias=False)
            (1): ReLU(inplace=True)
            (2): Linear(in_features=32, out_features=512, bias=False)
            (3): Sigmoid()
          )
        )
      )
    )
    (linear): Linear(in_features=512, out_features=10, bias=True)
  )
)

Optimizer:
Adam (
Parameter Group 0
    amsgrad: False
    betas: (0.9, 0.999)
    capturable: False
    decoupled_weight_decay: False
    differentiable: False
    eps: 1e-08
    foreach: None
    fused: None
    lr: 0.001
    maximize: False
    weight_decay: 0
)
Using 7 GPUs!
Model Architecture:
Using 7 GPUs!
DataParallel(
  (module): ResNet(
    (conv1): Conv2d(3, 64, kernel_size=(3, 3), stride=(1, 1), padding=(1, 1), bias=False)
    (bn1): BatchNorm2d(64, eps=1e-05, momentum=0.1, affine=True, track_running_stats=True)
    (layer1): Sequential(
      (0): SEBasicBlock(
        (conv1): Conv2d(64, 64, kernel_size=(3, 3), stride=(1, 1), padding=(1, 1), bias=False)
        (bn1): BatchNorm2d(64, eps=1e-05, momentum=0.1, affine=True, track_running_stats=True)
        (conv2): Conv2d(64, 64, kernel_size=(3, 3), stride=(1, 1), padding=(1, 1), bias=False)
        (bn2): BatchNorm2d(64, eps=1e-05, momentum=0.1, affine=True, track_running_stats=True)
        (shortcut): Sequential()
        (se): SEBlock(
          (avg_pool): AdaptiveAvgPool2d(output_size=1)
          (fc): Sequential(
            (0): Linear(in_features=64, out_features=4, bias=False)
            (1): ReLU(inplace=True)
            (2): Linear(in_features=4, out_features=64, bias=False)
            (3): Sigmoid()
          )
        )
      )
      (1): SEBasicBlock(
        (conv1): Conv2d(64, 64, kernel_size=(3, 3), stride=(1, 1), padding=(1, 1), bias=False)
        (bn1): BatchNorm2d(64, eps=1e-05, momentum=0.1, affine=True, track_running_stats=True)
        (conv2): Conv2d(64, 64, kernel_size=(3, 3), stride=(1, 1), padding=(1, 1), bias=False)
        (bn2): BatchNorm2d(64, eps=1e-05, momentum=0.1, affine=True, track_running_stats=True)
        (shortcut): Sequential()
        (se): SEBlock(
          (avg_pool): AdaptiveAvgPool2d(output_size=1)
          (fc): Sequential(
            (0): Linear(in_features=64, out_features=4, bias=False)
            (1): ReLU(inplace=True)
            (2): Linear(in_features=4, out_features=64, bias=False)
            (3): Sigmoid()
          )
        )
      )
    )
    (layer2): Sequential(
      (0): SEBasicBlock(
        (conv1): Conv2d(64, 128, kernel_size=(3, 3), stride=(2, 2), padding=(1, 1), bias=False)
        (bn1): BatchNorm2d(128, eps=1e-05, momentum=0.1, affine=True, track_running_stats=True)
        (conv2): Conv2d(128, 128, kernel_size=(3, 3), stride=(1, 1), padding=(1, 1), bias=False)
        (bn2): BatchNorm2d(128, eps=1e-05, momentum=0.1, affine=True, track_running_stats=True)
        (shortcut): Sequential(
          (0): Conv2d(64, 128, kernel_size=(1, 1), stride=(2, 2), bias=False)
          (1): BatchNorm2d(128, eps=1e-05, momentum=0.1, affine=True, track_running_stats=True)
        )
        (se): SEBlock(
          (avg_pool): AdaptiveAvgPool2d(output_size=1)
          (fc): Sequential(
            (0): Linear(in_features=128, out_features=8, bias=False)
            (1): ReLU(inplace=True)
            (2): Linear(in_features=8, out_features=128, bias=False)
            (3): Sigmoid()
          )
        )
      )
      (1): SEBasicBlock(
        (conv1): Conv2d(128, 128, kernel_size=(3, 3), stride=(1, 1), padding=(1, 1), bias=False)
        (bn1): BatchNorm2d(128, eps=1e-05, momentum=0.1, affine=True, track_running_stats=True)
        (conv2): Conv2d(128, 128, kernel_size=(3, 3), stride=(1, 1), padding=(1, 1), bias=False)
        (bn2): BatchNorm2d(128, eps=1e-05, momentum=0.1, affine=True, track_running_stats=True)
        (shortcut): Sequential()
        (se): SEBlock(
          (avg_pool): AdaptiveAvgPool2d(output_size=1)
          (fc): Sequential(
            (0): Linear(in_features=128, out_features=8, bias=False)
            (1): ReLU(inplace=True)
            (2): Linear(in_features=8, out_features=128, bias=False)
            (3): Sigmoid()
          )
        )
      )
    )
    (layer3): Sequential(
      (0): SEBasicBlock(
        (conv1): Conv2d(128, 256, kernel_size=(3, 3), stride=(2, 2), padding=(1, 1), bias=False)
        (bn1): BatchNorm2d(256, eps=1e-05, momentum=0.1, affine=True, track_running_stats=True)
        (conv2): Conv2d(256, 256, kernel_size=(3, 3), stride=(1, 1), padding=(1, 1), bias=False)
        (bn2): BatchNorm2d(256, eps=1e-05, momentum=0.1, affine=True, track_running_stats=True)
        (shortcut): Sequential(
          (0): Conv2d(128, 256, kernel_size=(1, 1), stride=(2, 2), bias=False)
          (1): BatchNorm2d(256, eps=1e-05, momentum=0.1, affine=True, track_running_stats=True)
        )
        (se): SEBlock(
          (avg_pool): AdaptiveAvgPool2d(output_size=1)
          (fc): Sequential(
            (0): Linear(in_features=256, out_features=16, bias=False)
            (1): ReLU(inplace=True)
            (2): Linear(in_features=16, out_features=256, bias=False)
            (3): Sigmoid()
          )
        )
      )
      (1): SEBasicBlock(
        (conv1): Conv2d(256, 256, kernel_size=(3, 3), stride=(1, 1), padding=(1, 1), bias=False)
        (bn1): BatchNorm2d(256, eps=1e-05, momentum=0.1, affine=True, track_running_stats=True)
        (conv2): Conv2d(256, 256, kernel_size=(3, 3), stride=(1, 1), padding=(1, 1), bias=False)
        (bn2): BatchNorm2d(256, eps=1e-05, momentum=0.1, affine=True, track_running_stats=True)
        (shortcut): Sequential()
        (se): SEBlock(
          (avg_pool): AdaptiveAvgPool2d(output_size=1)
          (fc): Sequential(
            (0): Linear(in_features=256, out_features=16, bias=False)
            (1): ReLU(inplace=True)
            (2): Linear(in_features=16, out_features=256, bias=False)
            (3): Sigmoid()
          )
        )
      )
    )
    (layer4): Sequential(
      (0): SEBasicBlock(
        (conv1): Conv2d(256, 512, kernel_size=(3, 3), stride=(2, 2), padding=(1, 1), bias=False)
        (bn1): BatchNorm2d(512, eps=1e-05, momentum=0.1, affine=True, track_running_stats=True)
        (conv2): Conv2d(512, 512, kernel_size=(3, 3), stride=(1, 1), padding=(1, 1), bias=False)
        (bn2): BatchNorm2d(512, eps=1e-05, momentum=0.1, affine=True, track_running_stats=True)
        (shortcut): Sequential(
          (0): Conv2d(256, 512, kernel_size=(1, 1), stride=(2, 2), bias=False)
          (1): BatchNorm2d(512, eps=1e-05, momentum=0.1, affine=True, track_running_stats=True)
        )
        (se): SEBlock(
          (avg_pool): AdaptiveAvgPool2d(output_size=1)
          (fc): Sequential(
            (0): Linear(in_features=512, out_features=32, bias=False)
            (1): ReLU(inplace=True)
            (2): Linear(in_features=32, out_features=512, bias=False)
            (3): Sigmoid()
          )
        )
      )
      (1): SEBasicBlock(
        (conv1): Conv2d(512, 512, kernel_size=(3, 3), stride=(1, 1), padding=(1, 1), bias=False)
        (bn1): BatchNorm2d(512, eps=1e-05, momentum=0.1, affine=True, track_running_stats=True)
        (conv2): Conv2d(512, 512, kernel_size=(3, 3), stride=(1, 1), padding=(1, 1), bias=False)
        (bn2): BatchNorm2d(512, eps=1e-05, momentum=0.1, affine=True, track_running_stats=True)
        (shortcut): Sequential()
        (se): SEBlock(
          (avg_pool): AdaptiveAvgPool2d(output_size=1)
          (fc): Sequential(
            (0): Linear(in_features=512, out_features=32, bias=False)
            (1): ReLU(inplace=True)
            (2): Linear(in_features=32, out_features=512, bias=False)
            (3): Sigmoid()
          )
        )
      )
    )
    (linear): Linear(in_features=512, out_features=10, bias=True)
  )
)

Optimizer:
Adam (
Parameter Group 0
    amsgrad: False
    betas: (0.9, 0.999)
    capturable: False
    decoupled_weight_decay: False
    differentiable: False
    eps: 1e-08
    foreach: None
    fused: None
    lr: 0.001
    maximize: False
    weight_decay: 0
)
Model Architecture:
DataParallel(
  (module): ResNet(
    (conv1): Conv2d(3, 64, kernel_size=(3, 3), stride=(1, 1), padding=(1, 1), bias=False)
    (bn1): BatchNorm2d(64, eps=1e-05, momentum=0.1, affine=True, track_running_stats=True)
    (layer1): Sequential(
      (0): SEBasicBlock(
        (conv1): Conv2d(64, 64, kernel_size=(3, 3), stride=(1, 1), padding=(1, 1), bias=False)
        (bn1): BatchNorm2d(64, eps=1e-05, momentum=0.1, affine=True, track_running_stats=True)
        (conv2): Conv2d(64, 64, kernel_size=(3, 3), stride=(1, 1), padding=(1, 1), bias=False)
        (bn2): BatchNorm2d(64, eps=1e-05, momentum=0.1, affine=True, track_running_stats=True)
        (shortcut): Sequential()
        (se): SEBlock(
          (avg_pool): AdaptiveAvgPool2d(output_size=1)
          (fc): Sequential(
            (0): Linear(in_features=64, out_features=4, bias=False)
            (1): ReLU(inplace=True)
            (2): Linear(in_features=4, out_features=64, bias=False)
            (3): Sigmoid()
          )
        )
      )
      (1): SEBasicBlock(
        (conv1): Conv2d(64, 64, kernel_size=(3, 3), stride=(1, 1), padding=(1, 1), bias=False)
        (bn1): BatchNorm2d(64, eps=1e-05, momentum=0.1, affine=True, track_running_stats=True)
        (conv2): Conv2d(64, 64, kernel_size=(3, 3), stride=(1, 1), padding=(1, 1), bias=False)
        (bn2): BatchNorm2d(64, eps=1e-05, momentum=0.1, affine=True, track_running_stats=True)
        (shortcut): Sequential()
        (se): SEBlock(
          (avg_pool): AdaptiveAvgPool2d(output_size=1)
          (fc): Sequential(
            (0): Linear(in_features=64, out_features=4, bias=False)
            (1): ReLU(inplace=True)
            (2): Linear(in_features=4, out_features=64, bias=False)
            (3): Sigmoid()
          )
        )
      )
    )
    (layer2): Sequential(
      (0): SEBasicBlock(
        (conv1): Conv2d(64, 128, kernel_size=(3, 3), stride=(2, 2), padding=(1, 1), bias=False)
        (bn1): BatchNorm2d(128, eps=1e-05, momentum=0.1, affine=True, track_running_stats=True)
        (conv2): Conv2d(128, 128, kernel_size=(3, 3), stride=(1, 1), padding=(1, 1), bias=False)
        (bn2): BatchNorm2d(128, eps=1e-05, momentum=0.1, affine=True, track_running_stats=True)
        (shortcut): Sequential(
          (0): Conv2d(64, 128, kernel_size=(1, 1), stride=(2, 2), bias=False)
          (1): BatchNorm2d(128, eps=1e-05, momentum=0.1, affine=True, track_running_stats=True)
        )
        (se): SEBlock(
          (avg_pool): AdaptiveAvgPool2d(output_size=1)
          (fc): Sequential(
            (0): Linear(in_features=128, out_features=8, bias=False)
            (1): ReLU(inplace=True)
            (2): Linear(in_features=8, out_features=128, bias=False)
            (3): Sigmoid()
          )
        )
      )
      (1): SEBasicBlock(
        (conv1): Conv2d(128, 128, kernel_size=(3, 3), stride=(1, 1), padding=(1, 1), bias=False)
        (bn1): BatchNorm2d(128, eps=1e-05, momentum=0.1, affine=True, track_running_stats=True)
        (conv2): Conv2d(128, 128, kernel_size=(3, 3), stride=(1, 1), padding=(1, 1), bias=False)
        (bn2): BatchNorm2d(128, eps=1e-05, momentum=0.1, affine=True, track_running_stats=True)
        (shortcut): Sequential()
        (se): SEBlock(
          (avg_pool): AdaptiveAvgPool2d(output_size=1)
          (fc): Sequential(
            (0): Linear(in_features=128, out_features=8, bias=False)
            (1): ReLU(inplace=True)
            (2): Linear(in_features=8, out_features=128, bias=False)
            (3): Sigmoid()
          )
        )
      )
    )
    (layer3): Sequential(
      (0): SEBasicBlock(
        (conv1): Conv2d(128, 256, kernel_size=(3, 3), stride=(2, 2), padding=(1, 1), bias=False)
        (bn1): BatchNorm2d(256, eps=1e-05, momentum=0.1, affine=True, track_running_stats=True)
        (conv2): Conv2d(256, 256, kernel_size=(3, 3), stride=(1, 1), padding=(1, 1), bias=False)
        (bn2): BatchNorm2d(256, eps=1e-05, momentum=0.1, affine=True, track_running_stats=True)
        (shortcut): Sequential(
          (0): Conv2d(128, 256, kernel_size=(1, 1), stride=(2, 2), bias=False)
          (1): BatchNorm2d(256, eps=1e-05, momentum=0.1, affine=True, track_running_stats=True)
        )
        (se): SEBlock(
          (avg_pool): AdaptiveAvgPool2d(output_size=1)
          (fc): Sequential(
            (0): Linear(in_features=256, out_features=16, bias=False)
            (1): ReLU(inplace=True)
            (2): Linear(in_features=16, out_features=256, bias=False)
            (3): Sigmoid()
          )
        )
      )
      (1): SEBasicBlock(
        (conv1): Conv2d(256, 256, kernel_size=(3, 3), stride=(1, 1), padding=(1, 1), bias=False)
        (bn1): BatchNorm2d(256, eps=1e-05, momentum=0.1, affine=True, track_running_stats=True)
        (conv2): Conv2d(256, 256, kernel_size=(3, 3), stride=(1, 1), padding=(1, 1), bias=False)
        (bn2): BatchNorm2d(256, eps=1e-05, momentum=0.1, affine=True, track_running_stats=True)
        (shortcut): Sequential()
        (se): SEBlock(
          (avg_pool): AdaptiveAvgPool2d(output_size=1)
          (fc): Sequential(
            (0): Linear(in_features=256, out_features=16, bias=False)
            (1): ReLU(inplace=True)
            (2): Linear(in_features=16, out_features=256, bias=False)
            (3): Sigmoid()
          )
        )
      )
    )
    (layer4): Sequential(
      (0): SEBasicBlock(
        (conv1): Conv2d(256, 512, kernel_size=(3, 3), stride=(2, 2), padding=(1, 1), bias=False)
        (bn1): BatchNorm2d(512, eps=1e-05, momentum=0.1, affine=True, track_running_stats=True)
        (conv2): Conv2d(512, 512, kernel_size=(3, 3), stride=(1, 1), padding=(1, 1), bias=False)
        (bn2): BatchNorm2d(512, eps=1e-05, momentum=0.1, affine=True, track_running_stats=True)
        (shortcut): Sequential(
          (0): Conv2d(256, 512, kernel_size=(1, 1), stride=(2, 2), bias=False)
          (1): BatchNorm2d(512, eps=1e-05, momentum=0.1, affine=True, track_running_stats=True)
        )
        (se): SEBlock(
          (avg_pool): AdaptiveAvgPool2d(output_size=1)
          (fc): Sequential(
            (0): Linear(in_features=512, out_features=32, bias=False)
            (1): ReLU(inplace=True)
            (2): Linear(in_features=32, out_features=512, bias=False)
            (3): Sigmoid()
          )
        )
      )
      (1): SEBasicBlock(
        (conv1): Conv2d(512, 512, kernel_size=(3, 3), stride=(1, 1), padding=(1, 1), bias=False)
        (bn1): BatchNorm2d(512, eps=1e-05, momentum=0.1, affine=True, track_running_stats=True)
        (conv2): Conv2d(512, 512, kernel_size=(3, 3), stride=(1, 1), padding=(1, 1), bias=False)
        (bn2): BatchNorm2d(512, eps=1e-05, momentum=0.1, affine=True, track_running_stats=True)
        (shortcut): Sequential()
        (se): SEBlock(
          (avg_pool): AdaptiveAvgPool2d(output_size=1)
          (fc): Sequential(
            (0): Linear(in_features=512, out_features=32, bias=False)
            (1): ReLU(inplace=True)
            (2): Linear(in_features=32, out_features=512, bias=False)
            (3): Sigmoid()
          )
        )
      )
    )
    (linear): Linear(in_features=512, out_features=10, bias=True)
  )
)

Optimizer:
Adam (
Parameter Group 0
    amsgrad: False
    betas: (0.9, 0.999)
    capturable: False
    decoupled_weight_decay: False
    differentiable: False
    eps: 1e-08
    foreach: None
    fused: None
    lr: 0.001
    maximize: False
    weight_decay: 0
)
Using 7 GPUs!
Using 7 GPUs!
Model Architecture:
Model Architecture:
DataParallel(
  (module): ResNet(
    (conv1): Conv2d(3, 64, kernel_size=(3, 3), stride=(1, 1), padding=(1, 1), bias=False)
    (bn1): BatchNorm2d(64, eps=1e-05, momentum=0.1, affine=True, track_running_stats=True)
    (layer1): Sequential(
      (0): SEBasicBlock(
        (conv1): Conv2d(64, 64, kernel_size=(3, 3), stride=(1, 1), padding=(1, 1), bias=False)
        (bn1): BatchNorm2d(64, eps=1e-05, momentum=0.1, affine=True, track_running_stats=True)
        (conv2): Conv2d(64, 64, kernel_size=(3, 3), stride=(1, 1), padding=(1, 1), bias=False)
        (bn2): BatchNorm2d(64, eps=1e-05, momentum=0.1, affine=True, track_running_stats=True)
        (shortcut): Sequential()
        (se): SEBlock(
          (avg_pool): AdaptiveAvgPool2d(output_size=1)
          (fc): Sequential(
            (0): Linear(in_features=64, out_features=4, bias=False)
            (1): ReLU(inplace=True)
            (2): Linear(in_features=4, out_features=64, bias=False)
            (3): Sigmoid()
          )
        )
      )
      (1): SEBasicBlock(
        (conv1): Conv2d(64, 64, kernel_size=(3, 3), stride=(1, 1), padding=(1, 1), bias=False)
        (bn1): BatchNorm2d(64, eps=1e-05, momentum=0.1, affine=True, track_running_stats=True)
        (conv2): Conv2d(64, 64, kernel_size=(3, 3), stride=(1, 1), padding=(1, 1), bias=False)
        (bn2): BatchNorm2d(64, eps=1e-05, momentum=0.1, affine=True, track_running_stats=True)
        (shortcut): Sequential()
        (se): SEBlock(
          (avg_pool): AdaptiveAvgPool2d(output_size=1)
          (fc): Sequential(
            (0): Linear(in_features=64, out_features=4, bias=False)
            (1): ReLU(inplace=True)
            (2): Linear(in_features=4, out_features=64, bias=False)
            (3): Sigmoid()
          )
        )
      )
    )
    (layer2): Sequential(
      (0): SEBasicBlock(
        (conv1): Conv2d(64, 128, kernel_size=(3, 3), stride=(2, 2), padding=(1, 1), bias=False)
        (bn1): BatchNorm2d(128, eps=1e-05, momentum=0.1, affine=True, track_running_stats=True)
        (conv2): Conv2d(128, 128, kernel_size=(3, 3), stride=(1, 1), padding=(1, 1), bias=False)
        (bn2): BatchNorm2d(128, eps=1e-05, momentum=0.1, affine=True, track_running_stats=True)
        (shortcut): Sequential(
          (0): Conv2d(64, 128, kernel_size=(1, 1), stride=(2, 2), bias=False)
          (1): BatchNorm2d(128, eps=1e-05, momentum=0.1, affine=True, track_running_stats=True)
        )
        (se): SEBlock(
          (avg_pool): AdaptiveAvgPool2d(output_size=1)
          (fc): Sequential(
            (0): Linear(in_features=128, out_features=8, bias=False)
            (1): ReLU(inplace=True)
            (2): Linear(in_features=8, out_features=128, bias=False)
            (3): Sigmoid()
          )
        )
      )
      (1): SEBasicBlock(
        (conv1): Conv2d(128, 128, kernel_size=(3, 3), stride=(1, 1), padding=(1, 1), bias=False)
        (bn1): BatchNorm2d(128, eps=1e-05, momentum=0.1, affine=True, track_running_stats=True)
        (conv2): Conv2d(128, 128, kernel_size=(3, 3), stride=(1, 1), padding=(1, 1), bias=False)
        (bn2): BatchNorm2d(128, eps=1e-05, momentum=0.1, affine=True, track_running_stats=True)
        (shortcut): Sequential()
        (se): SEBlock(
          (avg_pool): AdaptiveAvgPool2d(output_size=1)
          (fc): Sequential(
            (0): Linear(in_features=128, out_features=8, bias=False)
            (1): ReLU(inplace=True)
            (2): Linear(in_features=8, out_features=128, bias=False)
            (3): Sigmoid()
          )
        )
      )
    )
    (layer3): Sequential(
      (0): SEBasicBlock(
        (conv1): Conv2d(128, 256, kernel_size=(3, 3), stride=(2, 2), padding=(1, 1), bias=False)
        (bn1): BatchNorm2d(256, eps=1e-05, momentum=0.1, affine=True, track_running_stats=True)
        (conv2): Conv2d(256, 256, kernel_size=(3, 3), stride=(1, 1), padding=(1, 1), bias=False)
        (bn2): BatchNorm2d(256, eps=1e-05, momentum=0.1, affine=True, track_running_stats=True)
        (shortcut): Sequential(
          (0): Conv2d(128, 256, kernel_size=(1, 1), stride=(2, 2), bias=False)
          (1): BatchNorm2d(256, eps=1e-05, momentum=0.1, affine=True, track_running_stats=True)
        )
        (se): SEBlock(
          (avg_pool): AdaptiveAvgPool2d(output_size=1)
          (fc): Sequential(
            (0): Linear(in_features=256, out_features=16, bias=False)
            (1): ReLU(inplace=True)
            (2): Linear(in_features=16, out_features=256, bias=False)
            (3): Sigmoid()
          )
        )
      )
      (1): SEBasicBlock(
        (conv1): Conv2d(256, 256, kernel_size=(3, 3), stride=(1, 1), padding=(1, 1), bias=False)
        (bn1): BatchNorm2d(256, eps=1e-05, momentum=0.1, affine=True, track_running_stats=True)
        (conv2): Conv2d(256, 256, kernel_size=(3, 3), stride=(1, 1), padding=(1, 1), bias=False)
        (bn2): BatchNorm2d(256, eps=1e-05, momentum=0.1, affine=True, track_running_stats=True)
        (shortcut): Sequential()
        (se): SEBlock(
          (avg_pool): AdaptiveAvgPool2d(output_size=1)
          (fc): Sequential(
            (0): Linear(in_features=256, out_features=16, bias=False)
            (1): ReLU(inplace=True)
            (2): Linear(in_features=16, out_features=256, bias=False)
            (3): Sigmoid()
          )
        )
      )
    )
    (layer4): Sequential(
      (0): SEBasicBlock(
        (conv1): Conv2d(256, 512, kernel_size=(3, 3), stride=(2, 2), padding=(1, 1), bias=False)
        (bn1): BatchNorm2d(512, eps=1e-05, momentum=0.1, affine=True, track_running_stats=True)
        (conv2): Conv2d(512, 512, kernel_size=(3, 3), stride=(1, 1), padding=(1, 1), bias=False)
        (bn2): BatchNorm2d(512, eps=1e-05, momentum=0.1, affine=True, track_running_stats=True)
        (shortcut): Sequential(
          (0): Conv2d(256, 512, kernel_size=(1, 1), stride=(2, 2), bias=False)
          (1): BatchNorm2d(512, eps=1e-05, momentum=0.1, affine=True, track_running_stats=True)
        )
        (se): SEBlock(
          (avg_pool): AdaptiveAvgPool2d(output_size=1)
          (fc): Sequential(
            (0): Linear(in_features=512, out_features=32, bias=False)
            (1): ReLU(inplace=True)
            (2): Linear(in_features=32, out_features=512, bias=False)
            (3): Sigmoid()
          )
        )
      )
      (1): SEBasicBlock(
        (conv1): Conv2d(512, 512, kernel_size=(3, 3), stride=(1, 1), padding=(1, 1), bias=False)
        (bn1): BatchNorm2d(512, eps=1e-05, momentum=0.1, affine=True, track_running_stats=True)
        (conv2): Conv2d(512, 512, kernel_size=(3, 3), stride=(1, 1), padding=(1, 1), bias=False)
        (bn2): BatchNorm2d(512, eps=1e-05, momentum=0.1, affine=True, track_running_stats=True)
        (shortcut): Sequential()
        (se): SEBlock(
          (avg_pool): AdaptiveAvgPool2d(output_size=1)
          (fc): Sequential(
            (0): Linear(in_features=512, out_features=32, bias=False)
            (1): ReLU(inplace=True)
            (2): Linear(in_features=32, out_features=512, bias=False)
            (3): Sigmoid()
          )
        )
      )
    )
    (linear): Linear(in_features=512, out_features=10, bias=True)
  )
)

Optimizer:
Adam (
Parameter Group 0
    amsgrad: False
    betas: (0.9, 0.999)
    capturable: False
    decoupled_weight_decay: False
    differentiable: False
    eps: 1e-08
    foreach: None
    fused: None
    lr: 0.001
    maximize: False
    weight_decay: 0
)
DataParallel(
  (module): ResNet(
    (conv1): Conv2d(3, 64, kernel_size=(3, 3), stride=(1, 1), padding=(1, 1), bias=False)
    (bn1): BatchNorm2d(64, eps=1e-05, momentum=0.1, affine=True, track_running_stats=True)
    (layer1): Sequential(
      (0): SEBasicBlock(
        (conv1): Conv2d(64, 64, kernel_size=(3, 3), stride=(1, 1), padding=(1, 1), bias=False)
        (bn1): BatchNorm2d(64, eps=1e-05, momentum=0.1, affine=True, track_running_stats=True)
        (conv2): Conv2d(64, 64, kernel_size=(3, 3), stride=(1, 1), padding=(1, 1), bias=False)
        (bn2): BatchNorm2d(64, eps=1e-05, momentum=0.1, affine=True, track_running_stats=True)
        (shortcut): Sequential()
        (se): SEBlock(
          (avg_pool): AdaptiveAvgPool2d(output_size=1)
          (fc): Sequential(
            (0): Linear(in_features=64, out_features=4, bias=False)
            (1): ReLU(inplace=True)
            (2): Linear(in_features=4, out_features=64, bias=False)
            (3): Sigmoid()
          )
        )
      )
      (1): SEBasicBlock(
        (conv1): Conv2d(64, 64, kernel_size=(3, 3), stride=(1, 1), padding=(1, 1), bias=False)
        (bn1): BatchNorm2d(64, eps=1e-05, momentum=0.1, affine=True, track_running_stats=True)
        (conv2): Conv2d(64, 64, kernel_size=(3, 3), stride=(1, 1), padding=(1, 1), bias=False)
        (bn2): BatchNorm2d(64, eps=1e-05, momentum=0.1, affine=True, track_running_stats=True)
        (shortcut): Sequential()
        (se): SEBlock(
          (avg_pool): AdaptiveAvgPool2d(output_size=1)
          (fc): Sequential(
            (0): Linear(in_features=64, out_features=4, bias=False)
            (1): ReLU(inplace=True)
            (2): Linear(in_features=4, out_features=64, bias=False)
            (3): Sigmoid()
          )
        )
      )
    )
    (layer2): Sequential(
      (0): SEBasicBlock(
        (conv1): Conv2d(64, 128, kernel_size=(3, 3), stride=(2, 2), padding=(1, 1), bias=False)
        (bn1): BatchNorm2d(128, eps=1e-05, momentum=0.1, affine=True, track_running_stats=True)
        (conv2): Conv2d(128, 128, kernel_size=(3, 3), stride=(1, 1), padding=(1, 1), bias=False)
        (bn2): BatchNorm2d(128, eps=1e-05, momentum=0.1, affine=True, track_running_stats=True)
        (shortcut): Sequential(
          (0): Conv2d(64, 128, kernel_size=(1, 1), stride=(2, 2), bias=False)
          (1): BatchNorm2d(128, eps=1e-05, momentum=0.1, affine=True, track_running_stats=True)
        )
        (se): SEBlock(
          (avg_pool): AdaptiveAvgPool2d(output_size=1)
          (fc): Sequential(
            (0): Linear(in_features=128, out_features=8, bias=False)
            (1): ReLU(inplace=True)
            (2): Linear(in_features=8, out_features=128, bias=False)
            (3): Sigmoid()
          )
        )
      )
      (1): SEBasicBlock(
        (conv1): Conv2d(128, 128, kernel_size=(3, 3), stride=(1, 1), padding=(1, 1), bias=False)
        (bn1): BatchNorm2d(128, eps=1e-05, momentum=0.1, affine=True, track_running_stats=True)
        (conv2): Conv2d(128, 128, kernel_size=(3, 3), stride=(1, 1), padding=(1, 1), bias=False)
        (bn2): BatchNorm2d(128, eps=1e-05, momentum=0.1, affine=True, track_running_stats=True)
        (shortcut): Sequential()
        (se): SEBlock(
          (avg_pool): AdaptiveAvgPool2d(output_size=1)
          (fc): Sequential(
            (0): Linear(in_features=128, out_features=8, bias=False)
            (1): ReLU(inplace=True)
            (2): Linear(in_features=8, out_features=128, bias=False)
            (3): Sigmoid()
          )
        )
      )
    )
    (layer3): Sequential(
      (0): SEBasicBlock(
        (conv1): Conv2d(128, 256, kernel_size=(3, 3), stride=(2, 2), padding=(1, 1), bias=False)
        (bn1): BatchNorm2d(256, eps=1e-05, momentum=0.1, affine=True, track_running_stats=True)
        (conv2): Conv2d(256, 256, kernel_size=(3, 3), stride=(1, 1), padding=(1, 1), bias=False)
        (bn2): BatchNorm2d(256, eps=1e-05, momentum=0.1, affine=True, track_running_stats=True)
        (shortcut): Sequential(
          (0): Conv2d(128, 256, kernel_size=(1, 1), stride=(2, 2), bias=False)
          (1): BatchNorm2d(256, eps=1e-05, momentum=0.1, affine=True, track_running_stats=True)
        )
        (se): SEBlock(
          (avg_pool): AdaptiveAvgPool2d(output_size=1)
          (fc): Sequential(
            (0): Linear(in_features=256, out_features=16, bias=False)
            (1): ReLU(inplace=True)
            (2): Linear(in_features=16, out_features=256, bias=False)
            (3): Sigmoid()
          )
        )
      )
      (1): SEBasicBlock(
        (conv1): Conv2d(256, 256, kernel_size=(3, 3), stride=(1, 1), padding=(1, 1), bias=False)
        (bn1): BatchNorm2d(256, eps=1e-05, momentum=0.1, affine=True, track_running_stats=True)
        (conv2): Conv2d(256, 256, kernel_size=(3, 3), stride=(1, 1), padding=(1, 1), bias=False)
        (bn2): BatchNorm2d(256, eps=1e-05, momentum=0.1, affine=True, track_running_stats=True)
        (shortcut): Sequential()
        (se): SEBlock(
          (avg_pool): AdaptiveAvgPool2d(output_size=1)
          (fc): Sequential(
            (0): Linear(in_features=256, out_features=16, bias=False)
            (1): ReLU(inplace=True)
            (2): Linear(in_features=16, out_features=256, bias=False)
            (3): Sigmoid()
          )
        )
      )
    )
    (layer4): Sequential(
      (0): SEBasicBlock(
        (conv1): Conv2d(256, 512, kernel_size=(3, 3), stride=(2, 2), padding=(1, 1), bias=False)
        (bn1): BatchNorm2d(512, eps=1e-05, momentum=0.1, affine=True, track_running_stats=True)
        (conv2): Conv2d(512, 512, kernel_size=(3, 3), stride=(1, 1), padding=(1, 1), bias=False)
        (bn2): BatchNorm2d(512, eps=1e-05, momentum=0.1, affine=True, track_running_stats=True)
        (shortcut): Sequential(
          (0): Conv2d(256, 512, kernel_size=(1, 1), stride=(2, 2), bias=False)
          (1): BatchNorm2d(512, eps=1e-05, momentum=0.1, affine=True, track_running_stats=True)
        )
        (se): SEBlock(
          (avg_pool): AdaptiveAvgPool2d(output_size=1)
          (fc): Sequential(
            (0): Linear(in_features=512, out_features=32, bias=False)
            (1): ReLU(inplace=True)
            (2): Linear(in_features=32, out_features=512, bias=False)
            (3): Sigmoid()
          )
        )
      )
      (1): SEBasicBlock(
        (conv1): Conv2d(512, 512, kernel_size=(3, 3), stride=(1, 1), padding=(1, 1), bias=False)
        (bn1): BatchNorm2d(512, eps=1e-05, momentum=0.1, affine=True, track_running_stats=True)
        (conv2): Conv2d(512, 512, kernel_size=(3, 3), stride=(1, 1), padding=(1, 1), bias=False)
        (bn2): BatchNorm2d(512, eps=1e-05, momentum=0.1, affine=True, track_running_stats=True)
        (shortcut): Sequential()
        (se): SEBlock(
          (avg_pool): AdaptiveAvgPool2d(output_size=1)
          (fc): Sequential(
            (0): Linear(in_features=512, out_features=32, bias=False)
            (1): ReLU(inplace=True)
            (2): Linear(in_features=32, out_features=512, bias=False)
            (3): Sigmoid()
          )
        )
      )
    )
    (linear): Linear(in_features=512, out_features=10, bias=True)
  )
)

Optimizer:
Adam (
Parameter Group 0
    amsgrad: False
    betas: (0.9, 0.999)
    capturable: False
    decoupled_weight_decay: False
    differentiable: False
    eps: 1e-08
    foreach: None
    fused: None
    lr: 0.001
    maximize: False
    weight_decay: 0
)
Using 7 GPUs!
Model Architecture:
DataParallel(
  (module): ResNet(
    (conv1): Conv2d(3, 64, kernel_size=(3, 3), stride=(1, 1), padding=(1, 1), bias=False)
    (bn1): BatchNorm2d(64, eps=1e-05, momentum=0.1, affine=True, track_running_stats=True)
    (layer1): Sequential(
      (0): SEBasicBlock(
        (conv1): Conv2d(64, 64, kernel_size=(3, 3), stride=(1, 1), padding=(1, 1), bias=False)
        (bn1): BatchNorm2d(64, eps=1e-05, momentum=0.1, affine=True, track_running_stats=True)
        (conv2): Conv2d(64, 64, kernel_size=(3, 3), stride=(1, 1), padding=(1, 1), bias=False)
        (bn2): BatchNorm2d(64, eps=1e-05, momentum=0.1, affine=True, track_running_stats=True)
        (shortcut): Sequential()
        (se): SEBlock(
          (avg_pool): AdaptiveAvgPool2d(output_size=1)
          (fc): Sequential(
            (0): Linear(in_features=64, out_features=4, bias=False)
            (1): ReLU(inplace=True)
            (2): Linear(in_features=4, out_features=64, bias=False)
            (3): Sigmoid()
          )
        )
      )
      (1): SEBasicBlock(
        (conv1): Conv2d(64, 64, kernel_size=(3, 3), stride=(1, 1), padding=(1, 1), bias=False)
        (bn1): BatchNorm2d(64, eps=1e-05, momentum=0.1, affine=True, track_running_stats=True)
        (conv2): Conv2d(64, 64, kernel_size=(3, 3), stride=(1, 1), padding=(1, 1), bias=False)
        (bn2): BatchNorm2d(64, eps=1e-05, momentum=0.1, affine=True, track_running_stats=True)
        (shortcut): Sequential()
        (se): SEBlock(
          (avg_pool): AdaptiveAvgPool2d(output_size=1)
          (fc): Sequential(
            (0): Linear(in_features=64, out_features=4, bias=False)
            (1): ReLU(inplace=True)
            (2): Linear(in_features=4, out_features=64, bias=False)
            (3): Sigmoid()
          )
        )
      )
    )
    (layer2): Sequential(
      (0): SEBasicBlock(
        (conv1): Conv2d(64, 128, kernel_size=(3, 3), stride=(2, 2), padding=(1, 1), bias=False)
        (bn1): BatchNorm2d(128, eps=1e-05, momentum=0.1, affine=True, track_running_stats=True)
        (conv2): Conv2d(128, 128, kernel_size=(3, 3), stride=(1, 1), padding=(1, 1), bias=False)
        (bn2): BatchNorm2d(128, eps=1e-05, momentum=0.1, affine=True, track_running_stats=True)
        (shortcut): Sequential(
          (0): Conv2d(64, 128, kernel_size=(1, 1), stride=(2, 2), bias=False)
          (1): BatchNorm2d(128, eps=1e-05, momentum=0.1, affine=True, track_running_stats=True)
        )
        (se): SEBlock(
          (avg_pool): AdaptiveAvgPool2d(output_size=1)
          (fc): Sequential(
            (0): Linear(in_features=128, out_features=8, bias=False)
            (1): ReLU(inplace=True)
            (2): Linear(in_features=8, out_features=128, bias=False)
            (3): Sigmoid()
          )
        )
      )
      (1): SEBasicBlock(
        (conv1): Conv2d(128, 128, kernel_size=(3, 3), stride=(1, 1), padding=(1, 1), bias=False)
        (bn1): BatchNorm2d(128, eps=1e-05, momentum=0.1, affine=True, track_running_stats=True)
        (conv2): Conv2d(128, 128, kernel_size=(3, 3), stride=(1, 1), padding=(1, 1), bias=False)
        (bn2): BatchNorm2d(128, eps=1e-05, momentum=0.1, affine=True, track_running_stats=True)
        (shortcut): Sequential()
        (se): SEBlock(
          (avg_pool): AdaptiveAvgPool2d(output_size=1)
          (fc): Sequential(
            (0): Linear(in_features=128, out_features=8, bias=False)
            (1): ReLU(inplace=True)
            (2): Linear(in_features=8, out_features=128, bias=False)
            (3): Sigmoid()
          )
        )
      )
    )
    (layer3): Sequential(
      (0): SEBasicBlock(
        (conv1): Conv2d(128, 256, kernel_size=(3, 3), stride=(2, 2), padding=(1, 1), bias=False)
        (bn1): BatchNorm2d(256, eps=1e-05, momentum=0.1, affine=True, track_running_stats=True)
        (conv2): Conv2d(256, 256, kernel_size=(3, 3), stride=(1, 1), padding=(1, 1), bias=False)
        (bn2): BatchNorm2d(256, eps=1e-05, momentum=0.1, affine=True, track_running_stats=True)
        (shortcut): Sequential(
          (0): Conv2d(128, 256, kernel_size=(1, 1), stride=(2, 2), bias=False)
          (1): BatchNorm2d(256, eps=1e-05, momentum=0.1, affine=True, track_running_stats=True)
        )
        (se): SEBlock(
          (avg_pool): AdaptiveAvgPool2d(output_size=1)
          (fc): Sequential(
            (0): Linear(in_features=256, out_features=16, bias=False)
            (1): ReLU(inplace=True)
            (2): Linear(in_features=16, out_features=256, bias=False)
            (3): Sigmoid()
          )
        )
      )
      (1): SEBasicBlock(
        (conv1): Conv2d(256, 256, kernel_size=(3, 3), stride=(1, 1), padding=(1, 1), bias=False)
        (bn1): BatchNorm2d(256, eps=1e-05, momentum=0.1, affine=True, track_running_stats=True)
        (conv2): Conv2d(256, 256, kernel_size=(3, 3), stride=(1, 1), padding=(1, 1), bias=False)
        (bn2): BatchNorm2d(256, eps=1e-05, momentum=0.1, affine=True, track_running_stats=True)
        (shortcut): Sequential()
        (se): SEBlock(
          (avg_pool): AdaptiveAvgPool2d(output_size=1)
          (fc): Sequential(
            (0): Linear(in_features=256, out_features=16, bias=False)
            (1): ReLU(inplace=True)
            (2): Linear(in_features=16, out_features=256, bias=False)
            (3): Sigmoid()
          )
        )
      )
    )
    (layer4): Sequential(
      (0): SEBasicBlock(
        (conv1): Conv2d(256, 512, kernel_size=(3, 3), stride=(2, 2), padding=(1, 1), bias=False)
        (bn1): BatchNorm2d(512, eps=1e-05, momentum=0.1, affine=True, track_running_stats=True)
        (conv2): Conv2d(512, 512, kernel_size=(3, 3), stride=(1, 1), padding=(1, 1), bias=False)
        (bn2): BatchNorm2d(512, eps=1e-05, momentum=0.1, affine=True, track_running_stats=True)
        (shortcut): Sequential(
          (0): Conv2d(256, 512, kernel_size=(1, 1), stride=(2, 2), bias=False)
          (1): BatchNorm2d(512, eps=1e-05, momentum=0.1, affine=True, track_running_stats=True)
        )
        (se): SEBlock(
          (avg_pool): AdaptiveAvgPool2d(output_size=1)
          (fc): Sequential(
            (0): Linear(in_features=512, out_features=32, bias=False)
            (1): ReLU(inplace=True)
            (2): Linear(in_features=32, out_features=512, bias=False)
            (3): Sigmoid()
          )
        )
      )
      (1): SEBasicBlock(
        (conv1): Conv2d(512, 512, kernel_size=(3, 3), stride=(1, 1), padding=(1, 1), bias=False)
        (bn1): BatchNorm2d(512, eps=1e-05, momentum=0.1, affine=True, track_running_stats=True)
        (conv2): Conv2d(512, 512, kernel_size=(3, 3), stride=(1, 1), padding=(1, 1), bias=False)
        (bn2): BatchNorm2d(512, eps=1e-05, momentum=0.1, affine=True, track_running_stats=True)
        (shortcut): Sequential()
        (se): SEBlock(
          (avg_pool): AdaptiveAvgPool2d(output_size=1)
          (fc): Sequential(
            (0): Linear(in_features=512, out_features=32, bias=False)
            (1): ReLU(inplace=True)
            (2): Linear(in_features=32, out_features=512, bias=False)
            (3): Sigmoid()
          )
        )
      )
    )
    (linear): Linear(in_features=512, out_features=10, bias=True)
  )
)

Optimizer:
Adam (
Parameter Group 0
    amsgrad: False
    betas: (0.9, 0.999)
    capturable: False
    decoupled_weight_decay: False
    differentiable: False
    eps: 1e-08
    foreach: None
    fused: None
    lr: 0.001
    maximize: False
    weight_decay: 0
)
Train Epoch: 1 [0/50000 (0%)]	Loss: 2.324347
Train Epoch: 1 [0/50000 (0%)]	Loss: 2.391840
…
