Running MLP-Mixer Experiment
Using device: cuda
Experiment Name: baseline
Running MLP-Mixer Experiment
Using device: cuda
Experiment Name: baseline
Running MLP-Mixer Experiment
Using device: cuda
Experiment Name: baseline
Running MLP-Mixer Experiment
Using device: cuda
Experiment Name: baseline
Running MLP-Mixer Experiment
Using device: cuda
Experiment Name: baseline
Running MLP-Mixer Experiment
Using device: cuda
Experiment Name: baseline
Running MLP-Mixer Experiment
Using device: cuda
Experiment Name: baseline
Model Architecture:
MlpMixer(
  (patch_embed): Sequential(
    (0): Conv2d(1, 128, kernel_size=(4, 4), stride=(4, 4))
    (1): Rearrange('b c h w -> b (h w) c')
  )
  (mixer_blocks): Sequential(
    (0): MixerBlock(
      (token_mix): Sequential(
        (0): LayerNorm((128,), eps=1e-05, elementwise_affine=True)
        (1): Rearrange('b n d -> b d n')
        (2): MlpBlock(
          (fc1): Linear(in_features=49, out_features=64, bias=True)
          (act): GELU(approximate='none')
          (fc2): Linear(in_features=64, out_features=49, bias=True)
        )
        (3): Rearrange('b d n -> b n d')
      )
      (channel_mix): Sequential(
        (0): LayerNorm((128,), eps=1e-05, elementwise_affine=True)
        (1): MlpBlock(
          (fc1): Linear(in_features=128, out_features=256, bias=True)
          (act): GELU(approximate='none')
          (fc2): Linear(in_features=256, out_features=128, bias=True)
        )
      )
    )
    (1): MixerBlock(
      (token_mix): Sequential(
        (0): LayerNorm((128,), eps=1e-05, elementwise_affine=True)
        (1): Rearrange('b n d -> b d n')
        (2): MlpBlock(
          (fc1): Linear(in_features=49, out_features=64, bias=True)
          (act): GELU(approximate='none')
          (fc2): Linear(in_features=64, out_features=49, bias=True)
        )
        (3): Rearrange('b d n -> b n d')
      )
      (channel_mix): Sequential(
        (0): LayerNorm((128,), eps=1e-05, elementwise_affine=True)
        (1): MlpBlock(
          (fc1): Linear(in_features=128, out_features=256, bias=True)
          (act): GELU(approximate='none')
          (fc2): Linear(in_features=256, out_features=128, bias=True)
        )
      )
    )
    (2): MixerBlock(
      (token_mix): Sequential(
        (0): LayerNorm((128,), eps=1e-05, elementwise_affine=True)
        (1): Rearrange('b n d -> b d n')
        (2): MlpBlock(
          (fc1): Linear(in_features=49, out_features=64, bias=True)
          (act): GELU(approximate='none')
          (fc2): Linear(in_features=64, out_features=49, bias=True)
        )
        (3): Rearrange('b d n -> b n d')
      )
      (channel_mix): Sequential(
        (0): LayerNorm((128,), eps=1e-05, elementwise_affine=True)
        (1): MlpBlock(
          (fc1): Linear(in_features=128, out_features=256, bias=True)
          (act): GELU(approximate='none')
          (fc2): Linear(in_features=256, out_features=128, bias=True)
        )
      )
    )
    (3): MixerBlock(
      (token_mix): Sequential(
        (0): LayerNorm((128,), eps=1e-05, elementwise_affine=True)
        (1): Rearrange('b n d -> b d n')
        (2): MlpBlock(
          (fc1): Linear(in_features=49, out_features=64, bias=True)
          (act): GELU(approximate='none')
          (fc2): Linear(in_features=64, out_features=49, bias=True)
        )
        (3): Rearrange('b d n -> b n d')
      )
      (channel_mix): Sequential(
        (0): LayerNorm((128,), eps=1e-05, elementwise_affine=True)
        (1): MlpBlock(
          (fc1): Linear(in_features=128, out_features=256, bias=True)
          (act): GELU(approximate='none')
          (fc2): Linear(in_features=256, out_features=128, bias=True)
        )
      )
    )
  )
  (layer_norm): LayerNorm((128,), eps=1e-05, elementwise_affine=True)
  (classifier): Linear(in_features=128, out_features=10, bias=True)
)
Model Architecture:
MlpMixer(
  (patch_embed): Sequential(
    (0): Conv2d(1, 128, kernel_size=(4, 4), stride=(4, 4))
    (1): Rearrange('b c h w -> b (h w) c')
  )
  (mixer_blocks): Sequential(
    (0): MixerBlock(
      (token_mix): Sequential(
        (0): LayerNorm((128,), eps=1e-05, elementwise_affine=True)
        (1): Rearrange('b n d -> b d n')
        (2): MlpBlock(
          (fc1): Linear(in_features=49, out_features=64, bias=True)
          (act): GELU(approximate='none')
          (fc2): Linear(in_features=64, out_features=49, bias=True)
        )
        (3): Rearrange('b d n -> b n d')
      )
      (channel_mix): Sequential(
        (0): LayerNorm((128,), eps=1e-05, elementwise_affine=True)
        (1): MlpBlock(
          (fc1): Linear(in_features=128, out_features=256, bias=True)
          (act): GELU(approximate='none')
          (fc2): Linear(in_features=256, out_features=128, bias=True)
        )
      )
    )
    (1): MixerBlock(
      (token_mix): Sequential(
        (0): LayerNorm((128,), eps=1e-05, elementwise_affine=True)
        (1): Rearrange('b n d -> b d n')
        (2): MlpBlock(
          (fc1): Linear(in_features=49, out_features=64, bias=True)
          (act): GELU(approximate='none')
          (fc2): Linear(in_features=64, out_features=49, bias=True)
        )
        (3): Rearrange('b d n -> b n d')
      )
      (channel_mix): Sequential(
        (0): LayerNorm((128,), eps=1e-05, elementwise_affine=True)
        (1): MlpBlock(
          (fc1): Linear(in_features=128, out_features=256, bias=True)
          (act): GELU(approximate='none')
          (fc2): Linear(in_features=256, out_features=128, bias=True)
        )
      )
    )
    (2): MixerBlock(
      (token_mix): Sequential(
        (0): LayerNorm((128,), eps=1e-05, elementwise_affine=True)
        (1): Rearrange('b n d -> b d n')
        (2): MlpBlock(
          (fc1): Linear(in_features=49, out_features=64, bias=True)
          (act): GELU(approximate='none')
          (fc2): Linear(in_features=64, out_features=49, bias=True)
        )
        (3): Rearrange('b d n -> b n d')
      )
      (channel_mix): Sequential(
        (0): LayerNorm((128,), eps=1e-05, elementwise_affine=True)
        (1): MlpBlock(
          (fc1): Linear(in_features=128, out_features=256, bias=True)
          (act): GELU(approximate='none')
          (fc2): Linear(in_features=256, out_features=128, bias=True)
        )
      )
    )
    (3): MixerBlock(
      (token_mix): Sequential(
        (0): LayerNorm((128,), eps=1e-05, elementwise_affine=True)
        (1): Rearrange('b n d -> b d n')
        (2): MlpBlock(
          (fc1): Linear(in_features=49, out_features=64, bias=True)
          (act): GELU(approximate='none')
          (fc2): Linear(in_features=64, out_features=49, bias=True)
        )
        (3): Rearrange('b d n -> b n d')
      )
      (channel_mix): Sequential(
        (0): LayerNorm((128,), eps=1e-05, elementwise_affine=True)
        (1): MlpBlock(
          (fc1): Linear(in_features=128, out_features=256, bias=True)
          (act): GELU(approximate='none')
          (fc2): Linear(in_features=256, out_features=128, bias=True)
        )
      )
    )
  )
  (layer_norm): LayerNorm((128,), eps=1e-05, elementwise_affine=True)
  (classifier): Linear(in_features=128, out_features=10, bias=True)
)
Model Architecture:
MlpMixer(
  (patch_embed): Sequential(
    (0): Conv2d(1, 128, kernel_size=(4, 4), stride=(4, 4))
    (1): Rearrange('b c h w -> b (h w) c')
  )
  (mixer_blocks): Sequential(
    (0): MixerBlock(
      (token_mix): Sequential(
        (0): LayerNorm((128,), eps=1e-05, elementwise_affine=True)
        (1): Rearrange('b n d -> b d n')
        (2): MlpBlock(
          (fc1): Linear(in_features=49, out_features=64, bias=True)
          (act): GELU(approximate='none')
          (fc2): Linear(in_features=64, out_features=49, bias=True)
        )
        (3): Rearrange('b d n -> b n d')
      )
      (channel_mix): Sequential(
        (0): LayerNorm((128,), eps=1e-05, elementwise_affine=True)
        (1): MlpBlock(
          (fc1): Linear(in_features=128, out_features=256, bias=True)
          (act): GELU(approximate='none')
          (fc2): Linear(in_features=256, out_features=128, bias=True)
        )
      )
    )
    (1): MixerBlock(
      (token_mix): Sequential(
        (0): LayerNorm((128,), eps=1e-05, elementwise_affine=True)
        (1): Rearrange('b n d -> b d n')
        (2): MlpBlock(
          (fc1): Linear(in_features=49, out_features=64, bias=True)
          (act): GELU(approximate='none')
          (fc2): Linear(in_features=64, out_features=49, bias=True)
        )
        (3): Rearrange('b d n -> b n d')
      )
      (channel_mix): Sequential(
        (0): LayerNorm((128,), eps=1e-05, elementwise_affine=True)
        (1): MlpBlock(
          (fc1): Linear(in_features=128, out_features=256, bias=True)
          (act): GELU(approximate='none')
          (fc2): Linear(in_features=256, out_features=128, bias=True)
        )
      )
    )
    (2): MixerBlock(
      (token_mix): Sequential(
        (0): LayerNorm((128,), eps=1e-05, elementwise_affine=True)
        (1): Rearrange('b n d -> b d n')
        (2): MlpBlock(
          (fc1): Linear(in_features=49, out_features=64, bias=True)
          (act): GELU(approximate='none')
          (fc2): Linear(in_features=64, out_features=49, bias=True)
        )
        (3): Rearrange('b d n -> b n d')
      )
      (channel_mix): Sequential(
        (0): LayerNorm((128,), eps=1e-05, elementwise_affine=True)
        (1): MlpBlock(
          (fc1): Linear(in_features=128, out_features=256, bias=True)
          (act): GELU(approximate='none')
          (fc2): Linear(in_features=256, out_features=128, bias=True)
        )
      )
    )
    (3): MixerBlock(
      (token_mix): Sequential(
        (0): LayerNorm((128,), eps=1e-05, elementwise_affine=True)
        (1): Rearrange('b n d -> b d n')
        (2): MlpBlock(
          (fc1): Linear(in_features=49, out_features=64, bias=True)
          (act): GELU(approximate='none')
          (fc2): Linear(in_features=64, out_features=49, bias=True)
        )
        (3): Rearrange('b d n -> b n d')
      )
      (channel_mix): Sequential(
        (0): LayerNorm((128,), eps=1e-05, elementwise_affine=True)
        (1): MlpBlock(
          (fc1): Linear(in_features=128, out_features=256, bias=True)
          (act): GELU(approximate='none')
          (fc2): Linear(in_features=256, out_features=128, bias=True)
        )
      )
    )
  )
  (layer_norm): LayerNorm((128,), eps=1e-05, elementwise_affine=True)
  (classifier): Linear(in_features=128, out_features=10, bias=True)
)
Model Architecture:
Model Architecture:
MlpMixer(
  (patch_embed): Sequential(
    (0): Conv2d(1, 128, kernel_size=(4, 4), stride=(4, 4))
    (1): Rearrange('b c h w -> b (h w) c')
  )
  (mixer_blocks): Sequential(
    (0): MixerBlock(
      (token_mix): Sequential(
        (0): LayerNorm((128,), eps=1e-05, elementwise_affine=True)
        (1): Rearrange('b n d -> b d n')
        (2): MlpBlock(
          (fc1): Linear(in_features=49, out_features=64, bias=True)
          (act): GELU(approximate='none')
          (fc2): Linear(in_features=64, out_features=49, bias=True)
        )
        (3): Rearrange('b d n -> b n d')
      )
      (channel_mix): Sequential(
        (0): LayerNorm((128,), eps=1e-05, elementwise_affine=True)
        (1): MlpBlock(
          (fc1): Linear(in_features=128, out_features=256, bias=True)
          (act): GELU(approximate='none')
          (fc2): Linear(in_features=256, out_features=128, bias=True)
        )
      )
    )
    (1): MixerBlock(
      (token_mix): Sequential(
        (0): LayerNorm((128,), eps=1e-05, elementwise_affine=True)
        (1): Rearrange('b n d -> b d n')
        (2): MlpBlock(
          (fc1): Linear(in_features=49, out_features=64, bias=True)
          (act): GELU(approximate='none')
          (fc2): Linear(in_features=64, out_features=49, bias=True)
        )
        (3): Rearrange('b d n -> b n d')
      )
      (channel_mix): Sequential(
        (0): LayerNorm((128,), eps=1e-05, elementwise_affine=True)
        (1): MlpBlock(
          (fc1): Linear(in_features=128, out_features=256, bias=True)
          (act): GELU(approximate='none')
          (fc2): Linear(in_features=256, out_features=128, bias=True)
        )
      )
    )
    (2): MixerBlock(
      (token_mix): Sequential(
        (0): LayerNorm((128,), eps=1e-05, elementwise_affine=True)
        (1): Rearrange('b n d -> b d n')
        (2): MlpBlock(
          (fc1): Linear(in_features=49, out_features=64, bias=True)
          (act): GELU(approximate='none')
          (fc2): Linear(in_features=64, out_features=49, bias=True)
        )
        (3): Rearrange('b d n -> b n d')
      )
      (channel_mix): Sequential(
        (0): LayerNorm((128,), eps=1e-05, elementwise_affine=True)
        (1): MlpBlock(
          (fc1): Linear(in_features=128, out_features=256, bias=True)
          (act): GELU(approximate='none')
          (fc2): Linear(in_features=256, out_features=128, bias=True)
        )
      )
    )
    (3): MixerBlock(
      (token_mix): Sequential(
        (0): LayerNorm((128,), eps=1e-05, elementwise_affine=True)
        (1): Rearrange('b n d -> b d n')
        (2): MlpBlock(
          (fc1): Linear(in_features=49, out_features=64, bias=True)
          (act): GELU(approximate='none')
          (fc2): Linear(in_features=64, out_features=49, bias=True)
        )
        (3): Rearrange('b d n -> b n d')
      )
      (channel_mix): Sequential(
        (0): LayerNorm((128,), eps=1e-05, elementwise_affine=True)
        (1): MlpBlock(
          (fc1): Linear(in_features=128, out_features=256, bias=True)
          (act): GELU(approximate='none')
          (fc2): Linear(in_features=256, out_features=128, bias=True)
        )
      )
    )
  )
  (layer_norm): LayerNorm((128,), eps=1e-05, elementwise_affine=True)
  (classifier): Linear(in_features=128, out_features=10, bias=True)
)
MlpMixer(
  (patch_embed): Sequential(
    (0): Conv2d(1, 128, kernel_size=(4, 4), stride=(4, 4))
    (1): Rearrange('b c h w -> b (h w) c')
  )
  (mixer_blocks): Sequential(
    (0): MixerBlock(
      (token_mix): Sequential(
        (0): LayerNorm((128,), eps=1e-05, elementwise_affine=True)
        (1): Rearrange('b n d -> b d n')
        (2): MlpBlock(
          (fc1): Linear(in_features=49, out_features=64, bias=True)
          (act): GELU(approximate='none')
          (fc2): Linear(in_features=64, out_features=49, bias=True)
        )
        (3): Rearrange('b d n -> b n d')
      )
      (channel_mix): Sequential(
        (0): LayerNorm((128,), eps=1e-05, elementwise_affine=True)
        (1): MlpBlock(
          (fc1): Linear(in_features=128, out_features=256, bias=True)
          (act): GELU(approximate='none')
          (fc2): Linear(in_features=256, out_features=128, bias=True)
        )
      )
    )
    (1): MixerBlock(
      (token_mix): Sequential(
        (0): LayerNorm((128,), eps=1e-05, elementwise_affine=True)
        (1): Rearrange('b n d -> b d n')
        (2): MlpBlock(
          (fc1): Linear(in_features=49, out_features=64, bias=True)
          (act): GELU(approximate='none')
          (fc2): Linear(in_features=64, out_features=49, bias=True)
        )
        (3): Rearrange('b d n -> b n d')
      )
      (channel_mix): Sequential(
        (0): LayerNorm((128,), eps=1e-05, elementwise_affine=True)
        (1): MlpBlock(
          (fc1): Linear(in_features=128, out_features=256, bias=True)
          (act): GELU(approximate='none')
          (fc2): Linear(in_features=256, out_features=128, bias=True)
        )
      )
    )
    (2): MixerBlock(
      (token_mix): Sequential(
        (0): LayerNorm((128,), eps=1e-05, elementwise_affine=True)
        (1): Rearrange('b n d -> b d n')
        (2): MlpBlock(
          (fc1): Linear(in_features=49, out_features=64, bias=True)
          (act): GELU(approximate='none')
          (fc2): Linear(in_features=64, out_features=49, bias=True)
        )
        (3): Rearrange('b d n -> b n d')
      )
      (channel_mix): Sequential(
        (0): LayerNorm((128,), eps=1e-05, elementwise_affine=True)
        (1): MlpBlock(
          (fc1): Linear(in_features=128, out_features=256, bias=True)
          (act): GELU(approximate='none')
          (fc2): Linear(in_features=256, out_features=128, bias=True)
        )
      )
    )
    (3): MixerBlock(
      (token_mix): Sequential(
        (0): LayerNorm((128,), eps=1e-05, elementwise_affine=True)
        (1): Rearrange('b n d -> b d n')
        (2): MlpBlock(
          (fc1): Linear(in_features=49, out_features=64, bias=True)
          (act): GELU(approximate='none')
          (fc2): Linear(in_features=64, out_features=49, bias=True)
        )
        (3): Rearrange('b d n -> b n d')
      )
      (channel_mix): Sequential(
        (0): LayerNorm((128,), eps=1e-05, elementwise_affine=True)
        (1): MlpBlock(
          (fc1): Linear(in_features=128, out_features=256, bias=True)
          (act): GELU(approximate='none')
          (fc2): Linear(in_features=256, out_features=128, bias=True)
        )
      )
    )
  )
  (layer_norm): LayerNorm((128,), eps=1e-05, elementwise_affine=True)
  (classifier): Linear(in_features=128, out_features=10, bias=True)
)
Model Architecture:
MlpMixer(
  (patch_embed): Sequential(
    (0): Conv2d(1, 128, kernel_size=(4, 4), stride=(4, 4))
    (1): Rearrange('b c h w -> b (h w) c')
  )
  (mixer_blocks): Sequential(
    (0): MixerBlock(
      (token_mix): Sequential(
        (0): LayerNorm((128,), eps=1e-05, elementwise_affine=True)
        (1): Rearrange('b n d -> b d n')
        (2): MlpBlock(
          (fc1): Linear(in_features=49, out_features=64, bias=True)
          (act): GELU(approximate='none')
          (fc2): Linear(in_features=64, out_features=49, bias=True)
        )
        (3): Rearrange('b d n -> b n d')
      )
      (channel_mix): Sequential(
        (0): LayerNorm((128,), eps=1e-05, elementwise_affine=True)
        (1): MlpBlock(
          (fc1): Linear(in_features=128, out_features=256, bias=True)
          (act): GELU(approximate='none')
          (fc2): Linear(in_features=256, out_features=128, bias=True)
        )
      )
    )
    (1): MixerBlock(
      (token_mix): Sequential(
        (0): LayerNorm((128,), eps=1e-05, elementwise_affine=True)
        (1): Rearrange('b n d -> b d n')
        (2): MlpBlock(
          (fc1): Linear(in_features=49, out_features=64, bias=True)
          (act): GELU(approximate='none')
          (fc2): Linear(in_features=64, out_features=49, bias=True)
        )
        (3): Rearrange('b d n -> b n d')
      )
      (channel_mix): Sequential(
        (0): LayerNorm((128,), eps=1e-05, elementwise_affine=True)
        (1): MlpBlock(
          (fc1): Linear(in_features=128, out_features=256, bias=True)
          (act): GELU(approximate='none')
          (fc2): Linear(in_features=256, out_features=128, bias=True)
        )
      )
    )
    (2): MixerBlock(
      (token_mix): Sequential(
        (0): LayerNorm((128,), eps=1e-05, elementwise_affine=True)
        (1): Rearrange('b n d -> b d n')
        (2): MlpBlock(
          (fc1): Linear(in_features=49, out_features=64, bias=True)
          (act): GELU(approximate='none')
          (fc2): Linear(in_features=64, out_features=49, bias=True)
        )
        (3): Rearrange('b d n -> b n d')
      )
      (channel_mix): Sequential(
        (0): LayerNorm((128,), eps=1e-05, elementwise_affine=True)
        (1): MlpBlock(
          (fc1): Linear(in_features=128, out_features=256, bias=True)
          (act): GELU(approximate='none')
          (fc2): Linear(in_features=256, out_features=128, bias=True)
        )
      )
    )
    (3): MixerBlock(
      (token_mix): Sequential(
        (0): LayerNorm((128,), eps=1e-05, elementwise_affine=True)
        (1): Rearrange('b n d -> b d n')
        (2): MlpBlock(
          (fc1): Linear(in_features=49, out_features=64, bias=True)
          (act): GELU(approximate='none')
          (fc2): Linear(in_features=64, out_features=49, bias=True)
        )
        (3): Rearrange('b d n -> b n d')
      )
      (channel_mix): Sequential(
        (0): LayerNorm((128,), eps=1e-05, elementwise_affine=True)
        (1): MlpBlock(
          (fc1): Linear(in_features=128, out_features=256, bias=True)
          (act): GELU(approximate='none')
          (fc2): Linear(in_features=256, out_features=128, bias=True)
        )
      )
    )
  )
  (layer_norm): LayerNorm((128,), eps=1e-05, elementwise_affine=True)
  (classifier): Linear(in_features=128, out_features=10, bias=True)
)
Model Architecture:
MlpMixer(
  (patch_embed): Sequential(
    (0): Conv2d(1, 128, kernel_size=(4, 4), stride=(4, 4))
    (1): Rearrange('b c h w -> b (h w) c')
  )
  (mixer_blocks): Sequential(
    (0): MixerBlock(
      (token_mix): Sequential(
        (0): LayerNorm((128,), eps=1e-05, elementwise_affine=True)
        (1): Rearrange('b n d -> b d n')
        (2): MlpBlock(
          (fc1): Linear(in_features=49, out_features=64, bias=True)
          (act): GELU(approximate='none')
          (fc2): Linear(in_features=64, out_features=49, bias=True)
        )
        (3): Rearrange('b d n -> b n d')
      )
      (channel_mix): Sequential(
        (0): LayerNorm((128,), eps=1e-05, elementwise_affine=True)
        (1): MlpBlock(
          (fc1): Linear(in_features=128, out_features=256, bias=True)
          (act): GELU(approximate='none')
          (fc2): Linear(in_features=256, out_features=128, bias=True)
        )
      )
    )
    (1): MixerBlock(
      (token_mix): Sequential(
        (0): LayerNorm((128,), eps=1e-05, elementwise_affine=True)
        (1): Rearrange('b n d -> b d n')
        (2): MlpBlock(
          (fc1): Linear(in_features=49, out_features=64, bias=True)
          (act): GELU(approximate='none')
          (fc2): Linear(in_features=64, out_features=49, bias=True)
        )
        (3): Rearrange('b d n -> b n d')
      )
      (channel_mix): Sequential(
        (0): LayerNorm((128,), eps=1e-05, elementwise_affine=True)
        (1): MlpBlock(
          (fc1): Linear(in_features=128, out_features=256, bias=True)
          (act): GELU(approximate='none')
          (fc2): Linear(in_features=256, out_features=128, bias=True)
        )
      )
    )
    (2): MixerBlock(
      (token_mix): Sequential(
        (0): LayerNorm((128,), eps=1e-05, elementwise_affine=True)
        (1): Rearrange('b n d -> b d n')
        (2): MlpBlock(
          (fc1): Linear(in_features=49, out_features=64, bias=True)
          (act): GELU(approximate='none')
          (fc2): Linear(in_features=64, out_features=49, bias=True)
        )
        (3): Rearrange('b d n -> b n d')
      )
      (channel_mix): Sequential(
        (0): LayerNorm((128,), eps=1e-05, elementwise_affine=True)
        (1): MlpBlock(
          (fc1): Linear(in_features=128, out_features=256, bias=True)
          (act): GELU(approximate='none')
          (fc2): Linear(in_features=256, out_features=128, bias=True)
        )
      )
    )
    (3): MixerBlock(
      (token_mix): Sequential(
        (0): LayerNorm((128,), eps=1e-05, elementwise_affine=True)
        (1): Rearrange('b n d -> b d n')
        (2): MlpBlock(
          (fc1): Linear(in_features=49, out_features=64, bias=True)
          (act): GELU(approximate='none')
          (fc2): Linear(in_features=64, out_features=49, bias=True)
        )
        (3): Rearrange('b d n -> b n d')
      )
      (channel_mix): Sequential(
        (0): LayerNorm((128,), eps=1e-05, elementwise_affine=True)
        (1): MlpBlock(
          (fc1): Linear(in_features=128, out_features=256, bias=True)
          (act): GELU(approximate='none')
          (fc2): Linear(in_features=256, out_features=128, bias=True)
        )
      )
    )
  )
  (layer_norm): LayerNorm((128,), eps=1e-05, elementwise_affine=True)
  (classifier): Linear(in_features=128, out_features=10, bias=True)
)
Train Epoch: 1 [0/60000 (0%)]	Loss: 2.371673
Train Epoch: 1 [0/60000 (0%)]	Loss: 2.347337
Train Epoch: 1 [0/60000 (0%)]	Loss: 2.359499
Train Epoch: 1 [0/60000 (0%)]	Loss: 2.368479
Train Epoch: 1 [0/60000 (0%)]	Loss: 2.334113
Train Epoch: 1 [0/60000 (0%)]	Loss: 2.326991
Train Epoch: 1 [0/60000 (0%)]	Loss: 2.330606
Train Epoch: 1 [12800/60000 (21%)]	Loss: 0.216225
…
